model.tflite (tflite, 2708 bytes, 4 tensors)

model/predictions/BiasAdd/ReadVariableOp f4 [2]
0	0x3c84a222	0.016190592
1	0xbc84a224	-0.016190596

model/dense_1/BiasAdd/ReadVariableOp f4 [16]
0	0x00000000	0.0
1	0x3c7c2fa5	0.015392219
2	0x00000000	0.0
3	0x3c299b19	0.01035192
4	0xbc843ba7	-0.016141726
5	0xbc8b2486	-0.01698519
6	0x3c56cdf1	0.013110624
7	0x00000000	0.0
8	0xbd873c4a	-0.06603296
9	0x00000000	0.0
10	0x3d1c718a	0.038194217
11	0xbcec417c	-0.02883982
12	0x3ba84e66	0.005136299
13	0xbc8d59e1	-0.017254772
14	0x3b8130e4	0.003942596
15	0x00000000	0.0

model/dense_1/MatMul f4 [16, 13]
0	0xbecad486	-0.39615268
1	0x3eb23c8a	0.34811813
2	0x3dc14c90	0.09438431
3	0xbe814d04	-0.2525407
4	0xbe0a7406	-0.13520822
5	0x3edfe7dc	0.43731582
6	0x3e1bb284	0.15204817
7	0xbec61233	-0.3868576
8	0x3ebf16ac	0.37321985
9	0xbe9103dc	-0.28323257
10	0xbee1e2a9	-0.4411824
11	0x3d826a88	0.063679755
12	0xbe75d208	-0.24005902
13	0xbe917778	-0.2841146
14	0x3f40c230	0.75296307
15	0xbe847222	-0.25868326
16	0x3dad6318	0.08466166
17	0x3db27dd9	0.0871541
18	0x3e314451	0.17311217
19	0xbece80bf	-0.403326
20	0x3de764cf	0.112985246
21	0x3dae6bb3	0.08516636
22	0x3f0134f1	0.5047141
23	0x3e5a347b	0.21309082
24	0x3dca365a	0.09873648
25	0x3ef4e610	0.47831774
26	0xbcb62200	-0.02223301
27	0xbd889688	-0.066693366
28	0xbe37385c	-0.17892593
29	0xbe6a07fd	-0.2285461
30	0xbe94e9ca	-0.29084617
31	0x3e8c8b60	0.27450085
32	0x3e1bf280	0.15229225
33	0xbedf5480	-0.43619156
34	0x3ebd7e20	0.37010288
35	0xbec54299	-0.38527372
36	0xbce5bcd0	-0.028044134
37	0xbe44994e	-0.19199106
38	0x3eaee4e8	0.34159017
39	0xbee9bf1b	-0.45653614
40	0xbf0e5046	-0.5559124
41	0x3f1c100e	0.60962
42	0x3d2f63c1	0.042819742
43	0xbd558fb6	-0.052139007
44	0x3f6a05a3	0.9141485
45	0x3db5b5a0	0.08872533
46	0x3e5bff7f	0.21484183
47	0x3eabed04	0.33579266
48	0x3d4bf58a	0.04979471
49	0x3e2c5100	0.16827774
50	0xbef87604	-0.4852754
51	0xbefa1d06	-0.48850268
52	0xbec6d4ca	-0.3883422
53	0xbf13b8d5	-0.57703906
54	0x3f092e88	0.53586626
55	0x3ea132ea	0.31484157
56	0x3e1060a2	0.14099362
57	0xbe699ee8	-0.22814524
58	0x3e8c29a4	0.2737552
59	0x3e8abd81	0.27097705
60	0xbf39b5b8	-0.72542906
61	0xbe910899	-0.28326872
62	0xbe6c9869	-0.23105015
63	0xbf0a501f	-0.54028505
64	0xbe54035b	-0.20704405
65	0xbe88f228	-0.2674725
66	0xbd89d396	-0.0672981
67	0x3f08886f	0.5333318
68	0xbcf49ef0	-0.029860944
69	0x3ee78832	0.45221096
70	0x3cddcdda	0.027075697
71	0xbe673a73	-0.2258089
72	0xbda81f6f	-0.082091205
73	0xbe38ca6d	-0.1804597
74	0xbeb46b1e	-0.35237974
75	0x3e01d23c	0.12677854
76	0xbe3984c4	-0.18117052
77	0xbea27ccb	-0.31735834
78	0x3e13c5ad	0.14430876
79	0x3edde865	0.43341365
80	0xbdd271ba	-0.10275598
81	0x3e841773	0.2579914
82	0x3ea557ea	0.32293636
83	0xbe196633	-0.14980392
84	0xbdd026a9	-0.10163624
85	0xbe8dd0ba	-0.27698308
86	0x3ec6c9d0	0.38825846
87	0x3e653fbf	0.22387598
88	0xbe012553	-0.12611894
89	0x3f22e412	0.6362926
90	0x3dc3ada1	0.095546015
91	0xbec2ae3e	-0.3802356
92	0xbea0a536	-0.31376046
93	0x3e9b9f6c	0.30395067
94	0x3e735c40	0.2376566
95	0xbea8d6b4	-0.32976305
96	0x3ee2564a	0.44206458
97	0x3ebd6158	0.3698833
98	0x3e49ffbc	0.19726461
99	0xbd9beedc	-0.07613918
100	0x3e7dbc1c	0.2477879
101	0x3e618e1c	0.22026867
102	0x3b90a340	0.004413992
103	0xbd8996f4	-0.06718245
104	0x3d933782	0.07188322
105	0xbea42d9b	-0.32066044
106	0xbd391f7e	-0.04519605
107	0xbef6a85f	-0.48175332
108	0x3e133c55	0.14378484
109	0xbe57d7a4	-0.21078354
110	0x3d293c93	0.041317534
111	0x3d7a14b8	0.061054915
112	0xbeba939b	-0.3644074
113	0xbd5773a1	-0.052600507
114	0x3e8aeb13	0.27132472
115	0xbf0b4973	-0.5440895
116	0xbd43dc9d	-0.047817815
117	0x3cb4b6d0	0.022059828
118	0x3ebad8f0	0.36493635
119	0xbec73fed	-0.3891596
120	0xbdeb1ebc	-0.114804715
121	0xbec62063	-0.38696584
122	0x3e9701e6	0.29493636
123	0x3eb38a1c	0.35066307
124	0xbe238648	-0.15969193
125	0xbe7fd072	-0.2498186
126	0x3eca2a3c	0.39485347
127	0x3d095eb8	0.033537596
128	0x3e40d9b8	0.18833053
129	0xbe1bcd94	-0.1521514
130	0x3c9aa918	0.018879458
131	0x3dd334ca	0.10312803
132	0xbf42335d	-0.75859624
133	0x3ed25352	0.41079193
134	0xbebf6da7	-0.37388346
135	0xbf1a19fc	-0.601959
136	0x3b43c926	0.0029874532
137	0x3e4b156b	0.19832389
138	0x3f579f00	0.8422699
139	0xbda022c9	-0.07819135
140	0xbefa4691	-0.48881963
141	0x3ea4a4d1	0.32156995
142	0x3ecf842a	0.4053052
143	0xbeb39d3d	-0.350809
144	0xbea97d1d	-0.33103266
145	0xbe6419c5	-0.22275455
146	0xbef57f6b	-0.47948775
147	0x3e9c0cb9	0.30478457
148	0xbea1f5a6	-0.31632727
149	0x3e7b16f2	0.24520472
150	0xbe4cc9c6	-0.19998845
151	0xbe5984ae	-0.2124202
152	0x3ecc0668	0.39848638
153	0xbe77ea53	-0.24210481
154	0xbe7de810	-0.24795556
155	0xbc774963	-0.01509318
156	0x3d0a3bc3	0.0337484
157	0x3ebd3d02	0.36960608
158	0xbee6410d	-0.44971505
159	0x3e75a3ae	0.2398822
160	0x3ecda1cf	0.40162513
161	0x3e5cda20	0.21567583
162	0xbea8f875	-0.33002058
163	0x3db46e69	0.088101216
164	0x3e034dfa	0.12822714
165	0x3ef781e5	0.4834129
166	0xbee422ec	-0.44557893
167	0x3f2da492	0.6782924
168	0x3e9c5bb4	0.30538714
169	0x3e072fb6	0.13201794
170	0xbea56e2d	-0.3231062
171	0x3db754d9	0.0895173
172	0x3ee21a4f	0.44160697
173	0xbddd88d1	-0.10817111
174	0x3dfb16c6	0.12260203
175	0xbd87d616	-0.066326305
176	0x3d3e37b2	0.046439834
177	0xbf2b89da	-0.6700722
178	0xbe141913	-0.1446269
179	0x3ea60191	0.3242307
180	0xbdf47dd6	-0.11938064
181	0x3e09d5a5	0.13460405
182	0x3eaf25ea	0.34208614
183	0x3de1eaf5	0.110311426
184	0xbefe3a54	-0.49653876
185	0x3e251207	0.16120158
186	0x3e5e5af8	0.2171439
187	0x3dc42406	0.095771834
188	0x3e8da754	0.27666724
189	0xbe9407a9	-0.28912094
190	0xbe9b8bdf	-0.3038015
191	0x3d970f16	0.07375924
192	0xbe8382af	-0.2568564
193	0x3e9fdebd	0.31224623
194	0x3e135be6	0.14390525
195	0xbe03f500	-0.12886429
196	0xbe98c7d2	-0.2983995
197	0x3ecf24c0	0.40457726
198	0xbeb9d49f	-0.3629503
199	0xbe5cfe3c	-0.21581358
200	0x3d7bbf40	0.061461687
201	0x3ecc147e	0.39859384
202	0x3ed08c1a	0.4073189
203	0xbeaf42b5	-0.3423058
204	0x3e9b15d8	0.30290103
205	0xbd5c8f18	-0.053847402
206	0x3ecaf6a4	0.39641297
207	0xbe2ccb0c	-0.16874331

model/predictions/MatMul f4 [2, 16]
0	0x3dbbdaf8	0.09172624
1	0x3ed2a94d	0.4114479
2	0xbef21f30	-0.4728942
3	0xbf098f65	-0.5373443
4	0x3e5ebdac	0.21752042
5	0xbf0d82db	-0.55277795
6	0x3df738c6	0.120713755
7	0x3e95bf48	0.292475
8	0xbeba2f57	-0.36364242
9	0x3f10aa06	0.56509435
10	0x3e15d473	0.14631824
11	0xbe97ea66	-0.2967102
12	0x3e2b9f0f	0.16759895
13	0xbe8c0457	-0.2734706
14	0x3da1f97b	0.07908913
15	0xbf02489d	-0.5089205
16	0xbda63f3c	-0.0811753
17	0xbef68968	-0.48151708
18	0x3ef297c0	0.473814
19	0xbea16e5d	-0.31529513
20	0x3e93c7f0	0.28863478
21	0x3d9d36c8	0.07676464
22	0xbecacc6b	-0.39609084
23	0xbec82dc6	-0.39097422
24	0x3e136003	0.14392094
25	0x3e473908	0.1945535
26	0x3d81d1cb	0.06338843
27	0xbec527b4	-0.38506854
28	0x3df0588f	0.11735641
29	0x3e5a3b07	0.2131158
30	0x3df0ba4a	0.11754282
31	0xbe6192b8	-0.22028625
